class_project/DATA605/Spring2025/projects/TutorTask110_Spring2025_Real-Time_Bitcoin_Analysis_Using_Transformers/utils/saved_models/30step_transformer.pth (torch, 287138 bytes, 28 tensors)

embed.weight f4 [64, 5]
000000 5f dc a1 bc c3 fa a8 be 61 5a 4e be f7 5b a6 be
       -0.019758401 -0.33003816 -0.20151664 -0.3249204
000010 90 92 09 bd 9a 85 d7 be d9 0f 3d 3d a3 71 ea bd
       -0.03358704 -0.42094117 0.04615769 -0.11447456
000020 0d 28 82 3e a9 7e 2e 3d fc d8 db bb 68 37 45 be
       0.2542118 0.04260126 -0.006709216 -0.19259417
000030 ca 2e 20 3e 92 58 59 be 10 65 1f 3e 33 a6 a7 3d
       0.15642849 -0.21225193 0.15565896 0.08185997
000040 d9 63 6c 3e 1e 5e a7 bd f9 f0 90 bd 3b d8 30 be
       0.23084964 -0.08172248 -0.07077212 -0.17269985
000050 d6 24 d0 be 11 e6 e8 be 9f 20 db 3c cc 68 28 be
       -0.40653104 -0.45488027 0.026748953 -0.16446227
000060 aa 57 aa bd 42 42 6d 3d 20 22 eb 3e b3 a8 20 bd
       -0.08317502 0.057924516 0.45924473 -0.039223384
000070 5d 4a a0 3e c9 e9 64 3e fa 73 ff 3e 2e 62 69 3e
       0.31306735 0.22354807 0.4989317 0.22791359
000080 66 f1 84 be 5c bf 07 be ff 80 84 be 08 bc f1 be
       -0.25965422 -0.13256592 -0.25879666 -0.4721377
000090 d6 b0 1f be 91 c0 b0 bd 9b c4 29 3e e4 7a 28 bb
       -0.15594801 -0.08630479 0.16578905 -0.0025708014
0000a0 ef 3c 6b 3d 7b dd 82 3e 6b d2 42 3e d7 a1 dd bd
       0.057431158 0.255596 0.1902558 -0.10821884
0000b0 b2 6f 77 bc 74 31 cb bc bd 16 8f be 7a c0 b8 3e
       -0.015102314 -0.024803855 -0.27947035 0.36084348
0000c0 c2 a7 8c 3e 11 f2 a5 3d 17 1c 75 bd 4f c8 28 3e
       0.2747174 0.08102811 -0.05984124 0.16482662
0000d0 0d c8 6d 3d 1b bd 6c be 90 e8 38 3e ed 77 80 3e
       0.05805211 -0.23119013 0.18057466 0.25091496
0000e0 03 81 bf be ac 29 e3 be 7e 06 76 be aa 61 ec 3d
       -0.37403116 -0.4436773 -0.24025914 0.115420654
0000f0 dc 94 94 3e 33 9a 36 3e f6 4f a3 bd 34 3f b0 be
       0.2901982 0.1783226 -0.07974236 -0.3442322
000100 c5 19 5c bd a5 70 98 3e 8b ea 01 be c4 03 92 3d
       -0.053735513 0.2977344 -0.12687127 0.071296245
000110 3f dc a2 3e be 93 4f bd 70 f4 5b 3c e9 57 75 be
       0.3180866 -0.050678007 0.013424978 -0.23959316
000120 5b 49 53 be ca bd 4e 3d be d3 38 bd ba 31 e7 bd
       -0.20633452 0.050473966 -0.045123808 -0.112887815
000130 3e bc a7 be e8 c2 26 be c5 75 87 3e 2a 80 19 be
       -0.32760805 -0.16285288 0.2645704 -0.14990297
000140 58 3b 9f be 45 55 bf 3e bc f1 ad be 6f aa ae be
       -0.31099963 0.37369743 -0.3397349 -0.34114406
000150 71 1e 46 3d b8 33 c2 3e 33 45 8f be 03 6f a6 3e
       0.048368875 0.37930083 -0.27982482 0.3250657
000160 45 58 8f bd d1 24 1e bd 8b a5 9f be 47 35 a6 be
       -0.06999258 -0.03860933 -0.31180987 -0.32462522
000170 ab c3 85 3e c1 cb 58 be 3e 1c d5 3c 18 f4 4f 3e
       0.26125845 -0.21171476 0.026014443 0.20307958
000180 96 33 06 3e cb f3 fb bd 74 39 c1 3e 36 c4 e9 bd
       0.13105616 -0.12302359 0.37739146 -0.114143774
000190 a9 d5 24 be a7 d7 1c be 78 f0 24 3e f2 72 bc 3e
       -0.1609713 -0.1531664 0.16107357 0.36806446
0001a0 a4 02 b2 bd d0 97 6f be 3a cb a5 be 87 25 6c 3e
       -0.0869191 -0.23397756 -0.32381612 0.2306119
0001b0 b5 42 dc 3e 1e 89 12 be 0e 9f a4 3d f2 59 d0 3e
       0.43019643 -0.14310119 0.0803815 0.40693623
0001c0 06 ec c8 3d aa 4f 5e bd 7a cd 8d 3e 28 e0 32 3a
       0.09810643 -0.054275192 0.2769583 0.0006823563
0001d0 92 5b c9 3e 1b dc 80 be f8 ec ea 3d 06 97 86 be
       0.39327675 -0.25167927 0.114709795 -0.26287097
0001e0 0f 9a cd be f3 ca 40 3e 86 36 c5 3d 3f 4e 6f 3e
       -0.401566 0.18827419 0.0962954 0.23369692
0001f0 92 ce 79 3d 39 2a c6 3e 15 72 6e be 0c 59 55 bd
       0.060988016 0.38704088 -0.23285706 -0.052086875
000200 7d 27 a9 be c4 ff 1f 3e 05 b1 b4 be 3d 71 ce be
       -0.3303794 0.1562491 -0.35291305 -0.4032077
000210 2b 20 a4 3d 03 cc eb ba 4a 2f 78 be f1 bf 80 3d
       0.08013948 -0.0017989877 -0.2423679 0.0628661
000220 6d da b8 3e 38 67 35 3d 95 c9 e2 be 15 4b 26 3c
       0.36104146 0.04428789 -0.4429442 0.010149737
000230 e3 fc 41 3e 16 b3 f3 3e d5 ee b3 be 08 8c 4d be
       0.18944125 0.4759757 -0.35143152 -0.20072949
000240 4a c7 69 bc b4 eb c2 be 1c 3c 8a 3d dc 66 4b be
       -0.014268706 -0.38070452 0.06749746 -0.19863456
000250 4e 6b 51 3e 35 d8 7a bd f6 cd b8 3d 56 eb 89 3e
       0.2045109 -0.061241347 0.09023659 0.2693736
000260 82 65 98 be 82 c9 33 3e a7 28 fa bc 71 5b cd be
       -0.29764944 0.17557338 -0.030536963 -0.40108827
000270 8f 69 bd 3e 3d d5 9a be f0 9e a8 3d a2 81 ba bd
       0.36994597 -0.30240813 0.0823344 -0.09106757
000280 83 a6 3b bc 59 74 cb be 87 c0 98 bd fe c8 43 be
       -0.011453274 -0.39737204 -0.07458597 -0.19119641
000290 73 22 5d 3c fd 76 36 bd dd b6 cd 3e ab d5 7c be
       0.013496983 -0.04454707 0.40178576 -0.24690883
0002a0 4f a5 4d be 5d cc 16 be d4 63 81 3d df d4 65 be
       -0.20082591 -0.14726396 0.06317869 -0.22444485
0002b0 44 01 18 be 7b 2b 24 be 02 a7 32 3e 0b f2 80 bd
       -0.14844233 -0.16032211 0.17446521 -0.06296166
0002c0 1f f5 49 be 0c 58 f5 bd ca b3 a2 3e a8 e4 16 be
       -0.19722413 -0.11979684 0.31777793 -0.14735663
0002d0 a4 49 44 bd d5 22 3c 3e c6 18 16 3e 55 cf 6b be
       -0.04792179 0.18372662 0.14657888 -0.2302831
0002e0 d0 18 f8 3d 89 70 c3 3e b1 cc 8b be 17 46 fe 3d
       0.121141076 0.38171795 -0.27304605 0.12415712
0002f0 05 0b 11 3e 8f 97 a4 3c 7a 10 02 3e a8 1c 7f 3d
       0.1416436 0.0200918 0.12701598 0.062283188
000300 af ac 6e bd f1 97 71 3e 19 2f fc bd c4 3d 0b be
       -0.058270153 0.23593117 -0.12313671 -0.1359778
000310 69 93 a9 3d d4 e3 a6 3d 35 14 2e 3e 31 fb ac be
       0.082800694 0.081489235 0.16999896 -0.33785394
000320 19 6f b9 3e 1a a7 a3 be 4b 65 60 3e 2f 8e 5e be
       0.36217573 -0.31963426 0.2191364 -0.21733926
000330 5e ee 46 3d 4a 3d 16 3e b4 f5 b2 bd f7 06 b1 3e
       0.04856717 0.14671817 -0.087382704 0.34575626
000340 cf ff 8a be 98 2e fe bc 8c d5 b1 3c 2b d1 ea be
       -0.2714829 -0.031028077 0.021708272 -0.45862707
000350 ab 2e ce 3e 51 6a a6 be 62 77 96 be 3e db c1 3e
       0.4026998 -0.32502988 -0.29387957 0.3786258
000360 3a f6 e0 bd d9 90 ac be 95 eb 8f 3d 51 8e e6 bd
       -0.10984464 -0.3370426 0.070273556 -0.112576135
000370 29 7e 40 3e 77 ef 0c 3c 9d 99 0a 3e 61 1d f6 3d
       0.18798126 0.008602015 0.13535161 0.12017322
000380 07 ce d6 3d da 29 cc bd fc f5 ca 3e a6 82 08 3e
       0.10488515 -0.0996892 0.39640796 0.13331088
000390 0b f7 af 3d e1 a5 db 3c 44 9f a5 3d 23 4a 48 be
       0.085920416 0.026812496 0.08087018 -0.19559531
0003a0 7f f6 da be 58 ce 8b bc 0e 60 97 3d aa b9 2f be
       -0.42766187 -0.017066166 0.07391368 -0.17160669
0003b0 09 ec d6 bd a6 91 b0 3d 86 96 ec be ad c2 d6 3b
       -0.10494239 0.0862153 -0.4620859 0.006553969
0003c0 1e 95 93 3c c3 c0 ec bd 01 23 4a 3e 82 6a b2 be
       0.01801544 -0.11560204 0.19739915 -0.34846884
0003d0 4a fb 71 be f0 00 cf bd 05 3e 20 3b 11 56 b0 be
       -0.23631015 -0.10107601 0.002445103 -0.34440663
0003e0 bc 57 46 3e 51 24 90 be b0 bb b9 be 24 36 2f be
       0.19369406 -0.28152707 -0.36276007 -0.17110497
0003f0 df be 62 bd ae 8a 19 3e fc 7e 81 bc e2 fc ba 3e
       -0.05535781 0.14994308 -0.015807621 0.3652106

embed.bias f4 [64]
000000 dd 1e cd 3e 1f 70 57 3e a7 5c 1a 3f 4b 12 db 3d
       0.4006261 0.21038865 0.60297626 0.106968485
000010 16 a8 df 3e 54 fb 92 be 50 fe 8d be 9a 3a 9a 3e
       0.43682927 -0.28707373 -0.27733088 0.30122834
000020 2e 67 2d be 91 c5 9f be 47 7d e6 3d 50 4b 94 3e
       -0.16933891 -0.3120542 0.112543635 0.2896371
000030 50 06 f9 be 03 e5 08 be 5d a2 59 3e 01 fb 7f 3e
       -0.4863763 -0.13368611 0.21253343 0.24998094
000040 dc fc ad 3e cd 2f b6 be 6b 13 bb 3e 93 67 e5 bd
       0.3398198 -0.35583344 0.36538252 -0.11201396
000050 89 6c 08 3f 45 0e 0c 3f a7 97 83 be 1a 16 df bd
       0.5329061 0.54709274 -0.2570164 -0.108928874
000060 b7 84 b4 3e 2a f9 8f be 76 57 80 be fc fb a5 bd
       0.35257503 -0.28119785 -0.25066727 -0.08104703
000070 eb 90 f8 3e 8f 2c 9f 3e 68 58 c5 3e b4 ff 59 bd
       0.48548064 0.31088683 0.3854401 -0.053222373
000080 11 3c a0 be 90 ab a0 be d6 e2 16 3e a5 ea a2 be
       -0.31295827 -0.31380892 0.14734969 -0.31819645
000090 b2 db 35 3e f9 e0 f3 be ba 29 bc 3e 98 8e 0d be
       0.17759588 -0.47632578 0.36750585 -0.13823926
0000a0 5c 34 2b be 8e a0 d7 be 79 8a df 3d b2 2b 9a be
       -0.16719192 -0.4211468 0.109150834 -0.30111462
0000b0 54 47 5a 3e a6 01 cc 3e 21 ac 01 3d a1 7e 73 be
       0.21316272 0.39845008 0.031658296 -0.23778774
0000c0 fc 76 de bc 25 51 fa 3b f0 4d 98 3e 27 ec 37 be
       -0.027156346 0.0076390677 0.29746962 -0.17961179
0000d0 01 72 b0 be 67 37 26 bf f1 c9 99 be 1a 44 ac be
       -0.34461978 -0.6492829 -0.30036882 -0.33645707
0000e0 c2 c2 80 be 12 04 76 be 90 d2 a9 3d 6b 3e 2f 3d
       -0.25148588 -0.2402499 0.08292115 0.042784136
0000f0 6f 58 67 3e a9 ba 96 3b 7f e4 9e 3e 40 f0 c1 bb
       0.22592328 0.0045998883 0.31033704 -0.0059185326

transformer.layers.0.self_attn.in_proj_weight f4 [192, 64]
000000 58 b8 d4 3d fb 38 21 bc f7 92 15 be 42 3c c0 bd
       0.10386723 -0.009840245 -0.14606844 -0.09386493
000010 ab 98 f7 3d 3e 10 08 3e 2d 34 11 3e 7c fe 56 bd
       0.12089666 0.13287446 0.1418006 -0.05248879
000020 16 b5 bf bd 83 7f ac 3d 75 f3 cb bd 9d 9d 55 3d
       -0.09360711 0.084227584 -0.09958545 0.052152265
000030 0a ba 24 3d 13 5d 48 be 80 23 c3 bc f6 94 5e 3e
       0.040216483 -0.19566755 -0.023820639 0.21736512
000040 bf f5 cb 3d 5b 31 7e bc 37 e8 15 be 5e e7 13 be
       0.09958982 -0.015514697 -0.14639364 -0.14443728
000050 a6 8d ca bd 0f 3d 46 be 6a d0 06 bd ae fd a9 3c
       -0.098902985 -0.1935923 -0.032913603 0.020750847
000060 54 10 0c 3d 90 e8 cd 3d cf 54 1f bc 5a f4 ab bd
       0.03419526 0.100541234 -0.00972481 -0.08396216
000070 ba 58 33 be e0 7c 66 bd ae 24 7a bd d9 d5 3e bd
       -0.17514315 -0.056271434 -0.061070137 -0.04659066
000080 5a f8 49 3d d2 70 8c bc eb 3d e2 3c 86 c4 78 3c
       0.049309112 -0.01714364 0.027617415 0.015183574
000090 5d f3 3f be 65 c2 87 bc 50 24 43 be 71 ca 94 3d
       -0.1874518 -0.016572187 -0.19056821 0.07265175
0000a0 bc d5 d5 bd f2 ec 9c bd 06 6c 6d bd cc a0 b1 bd
       -0.10441157 -0.07662381 -0.057964347 -0.08673248
0000b0 e2 18 09 bd e1 de 45 3d 8a 3b 19 3d a6 3a 5c 3e
       -0.033470996 0.048308257 0.037410296 0.21506748
0000c0 a4 a0 2d bd a9 67 13 3e 52 72 77 3d 36 be 67 bc
       -0.042389527 0.14395012 0.06041176 -0.014144471
0000d0 f5 53 2d 3e ca de 36 3e de be 49 3e db 37 ea 3c
       0.16926558 0.17858425 0.19701716 0.028591087
0000e0 b9 78 b1 3d 95 ab d1 3d a6 38 c5 3d 80 46 37 be
       0.08665604 0.10237805 0.096299455 -0.17897987
0000f0 42 78 04 be 0d 64 c2 bc 76 c0 04 3d fe 48 cc 3d
       -0.129365 -0.023729349 0.032410108 0.0997486
000100 40 43 b9 3d 48 6c 8e 3e d0 dd 72 be 15 7b a3 bd
       0.0904603 0.27816987 -0.23717427 -0.079824604
000110 14 39 a2 3d 20 04 90 3d 7b 3a 97 bc 7e 00 f6 3c
       0.07921043 0.07032037 -0.018460503 0.030029532
000120 cb d0 a4 bd 9e 6d 31 3e 20 f4 22 bd ae 0f 05 3e
       -0.080476366 0.17326972 -0.039783597 0.12994263
000130 0d 62 89 bd df 5c 95 bd 9c 03 04 3e f5 84 33 3d
       -0.06708155 -0.072931044 0.12892002 0.04382797
000140 45 bd 4f bd 65 fe d2 bd 60 d0 7e be 10 8a f4 bd
       -0.05071761 -0.10302428 -0.24884176 -0.11940396
000150 66 b7 8d be b1 2e 1d bd 7e 17 6f be d3 03 b3 3d
       -0.27678984 -0.038374607 -0.23348805 0.08740964
000160 22 76 b5 3c a9 c9 41 3e 4d b1 8a 3b a8 60 6b be
       0.022151057 0.18924583 0.0042325617 -0.2298609
000170 aa 68 23 be 8f e5 35 bd 17 04 e2 ba 3c f9 7d 3e
       -0.15957895 -0.044408377 -0.001724365 0.24802107
000180 f3 cf 8e 3b 9f 33 10 3e da 47 09 3e 99 95 2c 3e
       0.0043582856 0.14082192 0.13406315 0.16853942
000190 44 5f 2c be 6b db 12 3e 76 75 b7 3b 86 5b 5a 3e
       -0.16833216 0.14341514 0.005598719 0.21323976
0001a0 96 41 8b bd 5d cf 8f 3d f2 61 8a bd 79 d6 a1 3c
       -0.06799619 0.07021973 -0.06756963 0.019755589
0001b0 16 f3 06 be 31 d8 75 be 03 4d 97 3e 83 ff cf 3d
       -0.13178667 -0.24008252 0.29550943 0.10156157
0001c0 45 b3 87 be aa 52 23 3e 7e d7 ea 3d 78 8a a4 3d
       -0.2650396 0.15949503 0.11466883 0.08034223
0001d0 12 45 1f 3c 5c b1 b1 3c 26 b9 48 3e 67 67 b7 bd
       0.0097210575 0.021691017 0.19601879 -0.08955269
0001e0 a8 73 84 3e 61 7b 44 3e 75 47 91 3d 70 88 9c 3c
       0.2586949 0.1918769 0.070937075 0.019108027
0001f0 de 59 d3 bd 41 0e 13 3e cc 77 38 be 34 4c 2e 3e
       -0.10319875 0.14360906 -0.18014449 0.17021257
000200 8d 5e 03 3e 95 c0 c6 bb 2c 29 a1 3d e3 a3 91 bd
       0.12829037 -0.006065438 0.07869181 -0.07111337
000210 24 2a d9 bd d5 01 f2 3d c5 03 be bd a0 ee e4 3d
       -0.10603741 0.11816756 -0.09278063 0.111783266
000220 f1 a6 a1 3d a6 bc 22 be e3 56 0b be 0e 40 04 3e
       0.0789317 -0.15892276 -0.13607363 0.1291506
000230 b4 ee 65 bd 40 c9 ab bd 4a 6f 9b 3b 25 10 1d bd
       -0.05613585 -0.08387995 0.0047434913 -0.038345475
000240 1f ae 30 3c 20 ee f2 bd 59 9f 1b bd 8f f9 8b bd
       0.010783701 -0.11861825 -0.037993763 -0.06834709
000250 e8 a7 64 3d 0d cc 07 3e e9 03 d9 bd cb 94 5e 3b
       0.05582419 0.13261433 -0.10596449 0.00339632
000260 6a 10 22 3e 61 4f b1 bd 9e 89 5e 3d 82 43 23 3e
       0.15826574 -0.086577184 0.05433046 0.15943721
000270 da ec b8 bd cb d7 af bd 65 4b ff bc 8b c0 2b 3d
       -0.09029551 -0.08586081 -0.03116388 0.04193167
000280 2c d0 6d 3c 54 2e ee bd fd 03 aa bd aa a9 d6 bd
       0.014514964 -0.1162993 -0.08301542 -0.104815796
000290 eb 77 a7 3d dd 67 00 3e 43 5f 26 3e 70 68 d9 bd
       0.081771694 0.1253962 0.16247277 -0.10615623
0002a0 a5 4a ce bd b0 52 bb bd c8 86 2a 3e c1 39 04 bd
       -0.10072831 -0.09146631 0.16652977 -0.03228164
0002b0 46 d9 9d 3d 5d e3 25 3d 95 04 9b 3c 93 71 77 bc
       0.07707457 0.040500034 0.018923083 -0.015102762
0002c0 af e8 87 bd e2 96 e4 3c ae e2 21 be 08 33 e7 bd
       -0.06636178 0.027903978 -0.15809128 -0.1128903
0002d0 b5 0c 93 bd b0 08 a5 bd f9 1a 0a be 84 fc f4 bd
       -0.07180158 -0.08058298 -0.13486852 -0.11962226
0002e0 ad ea e7 bd 08 c6 f2 bd c1 29 16 be 9b 62 dd bd
       -0.11324058 -0.11854178 -0.14664365 -0.10809823
0002f0 c0 7f fa 3c 1d b3 e9 bd f3 47 0a bd 31 75 ba 3d
       0.030578494 -0.11411116 -0.033760022 0.09104384
000300 84 86 58 bc e6 86 7c 3e ed fa 6c 3c 9e 59 14 be
       -0.013215665 0.24660835 0.014464122 -0.14487311
000310 1a 4b dc 3d 93 82 64 3d 7b 1e e2 3d e3 44 8f bb
       0.10756512 0.055788588 0.1104097 -0.0043722256
000320 ad f9 19 be e1 40 b5 3d bc e6 b5 3d 45 c2 bf bd
       -0.1503665 0.08850265 0.088819 -0.09363226
000330 54 25 7a 3d 2e 6d fc bd 96 2c 04 3e 13 df f6 3d
       0.061070755 -0.12325512 0.12907633 0.12054267
000340 1d 66 7c 3d 61 d0 23 be ec 70 32 bd f5 72 d9 3d
       0.06162082 -0.15997459 -0.043564722 0.106176294
000350 d5 22 58 bd e7 cc 3c 3d d0 95 c8 bd e5 95 94 bc
       -0.052767593 0.046093848 -0.097941995 -0.018137882
000360 86 19 1f be 6a bb 23 bd 32 ee 84 bd f8 a7 33 be
       -0.1553708 -0.039973654 -0.06490745 -0.17544544
000370 0c 1d d3 3d f5 3e 86 3d e3 41 f1 bd c6 e9 4a 3d
       0.103082746 0.06554977 -0.11780145 0.04953935
000380 79 6c ca 3d 12 6b d7 3d 95 7b e0 3d 27 37 43 3e
       0.09883971 0.10518469 0.109610714 0.19064008
000390 e7 a0 c3 bd a6 2f 0b 3e 77 69 0d bd 84 ac e5 3a
       -0.09552174 0.13592395 -0.034524407 0.0017522727
0003a0 60 dd 51 be 02 6c d5 bd 3b 04 2b be 1c a1 6c 3d
       -0.20494604 -0.104209915 -0.16700833 0.057770833
0003b0 09 d6 ec bd 27 b3 77 3d 66 79 6c 3e 24 72 10 3d
       -0.115642615 0.060473587 0.23093185 0.035265103
0003c0 79 da 91 bd 21 67 85 bc 2b 05 f0 3d ab b7 fe 3d
       -0.071217485 -0.016284527 0.11719736 0.12437376
0003d0 9b 17 ef 3d 81 9b 2a 3c 8d 5f d9 3d 1f 2a 51 bd
       0.11674424 0.010413052 0.10613928 -0.05106556
0003e0 39 14 9b bd 22 e1 0c 3e 6b 05 ed bd 6f 9a 38 b9
       -0.075722165 0.13757756 -0.11573299 -0.00017605138
0003f0 a6 fc 43 3d c1 f0 70 3e 1b 56 88 3d d4 9b 2c 3e
       0.047848366 0.2352934 0.06657048 0.16856319

transformer.layers.0.self_attn.in_proj_bias f4 [192]
000000 a7 da 91 bd 5e 5c de bd 24 d2 10 3d 1d bc 90 bd
       -0.07121783 -0.108574614 0.035356656 -0.0706713
000010 d9 e1 3b 3d 90 65 0a 3d 3e 43 82 bd 72 fd 94 3d
       0.045869682 0.033788264 -0.06360482 0.07274903
000020 d6 24 8a bd 69 34 cb bd 1a f0 81 3d 5c 48 a2 bd
       -0.06745307 -0.09922106 0.06344624 -0.07923958
000030 a5 21 bd bd 1f 9e 7c 3c 99 ad 87 bd cf fb 95 3d
       -0.09234933 0.015418558 -0.06624908 0.07323419
000040 ff b2 32 3d ce 8d 48 3d 6c 9b f6 bd 80 8b 07 be
       0.043627735 0.04896336 -0.12041363 -0.13236809
000050 c0 cd ca 3d 34 a7 f7 bc 66 7c c4 3d 25 c9 dd 3d
       0.09902525 -0.030231096 0.095940396 0.10829381
000060 a9 45 fe bd 2c a8 0d bd 81 b7 ea bb ee 17 d1 bd
       -0.1241563 -0.03458421 -0.0071629887 -0.10209642
000070 c1 a8 17 be 1a 23 cf bc 8d a9 ad 3d 56 a7 a6 3c
       -0.14810468 -0.025285292 0.08479605 0.020343464
000080 25 0f a0 3d 15 46 f6 3c c9 fd d7 3d ad ca 83 bd
       0.078153886 0.030062715 0.105464526 -0.06435142
000090 2e 2f 68 be 0a 44 22 3c ca 3d 61 be 17 8b bf 3d
       -0.22674248 0.009903917 -0.21996227 0.09352701
0000a0 12 e5 49 3e ff f4 40 be e0 4f b3 bc 57 2a db 3c
       0.1971629 -0.18843459 -0.021888673 0.026753588
0000b0 43 42 06 bd 2c 1c 37 3e 3a dc 4f bd d2 29 3a 3d
       -0.032778036 0.1788184 -0.050747134 0.04545004
0000c0 5a 10 53 be 51 43 45 3e 75 de a4 3e 4c ca 99 be
       -0.20611706 0.1926396 0.3220097 -0.30037153
0000d0 9c 96 a7 3d 47 a3 dd bb 35 b5 49 be ef 74 68 bd
       0.08183023 -0.006763849 -0.19698031 -0.05675214
0000e0 2b 24 05 3d 2d 14 f1 3d e9 aa 4e bd f8 f0 5e 3e
       0.032505196 0.11771426 -0.05045596 0.2177161
0000f0 22 30 83 3d fe 63 b5 3d e0 06 82 3e 38 11 1f 3e
       0.06405665 0.088569626 0.2539587 0.15533912
000100 b1 a8 c0 b7 c0 ea 05 b8 3d be bc 37 94 14 aa 36
       -2.2966737e-05 -3.19283e-05 2.2499933e-05 5.0687904e-06
000110 80 6c f8 37 22 d8 8e 35 3e 04 ee b7 cf b0 e7 37
       2.9614428e-05 1.0642727e-06 -2.8373786e-05 2.7619679e-05
000120 87 da dc b7 37 db bf b7 76 1d 08 37 eb fe 09 b8
       -2.6327803e-05 -2.2871054e-05 8.113091e-06 -3.2900756e-05
000130 65 b0 00 b8 12 61 ad 37 54 9f d9 b6 cc a8 82 37
       -3.068186e-05 2.0668409e-05 -6.485652e-06 1.557581e-05
000140 d1 e0 06 38 00 d6 37 38 2e 19 18 b8 e2 25 0a b8
       3.2157466e-05 4.3829903e-05 -3.6263074e-05 -3.2937045e-05
000150 f4 72 a9 37 47 56 55 b7 d5 70 91 37 f1 37 45 38
       2.01999e-05 -1.2715877e-05 1.7337888e-05 4.702056e-05
000160 5c 6e 43 b8 93 38 4b b6 1f 4e 41 37 60 d5 45 b8
       -4.6594403e-05 -3.0282288e-06 1.1521885e-05 -4.716718e-05
000170 64 f1 38 b8 c2 ee 1e 37 94 5d 10 38 83 11 1f b7
       -4.409383e-05 9.473124e-06 3.4419427e-05 -9.481216e-06
000180 ab 61 ce 37 26 e6 eb b7 2f 77 e7 37 86 ea 50 b8
       2.4602594e-05 -2.8121354e-05 2.7592845e-05 -4.980948e-05
000190 a5 35 f5 b8 1f c3 4e 38 c4 51 ad b8 b9 ce 18 37
       -0.000116925024 4.9295948e-05 -8.264513e-05 9.108037e-06
0001a0 6e 3b 9f 38 31 d9 f8 b8 fd df 0b 38 f1 99 48 38
       7.5927805e-05 -0.000118660166 3.3348788e-05 4.7827085e-05
0001b0 22 55 27 b8 81 c1 83 38 4b cd ee b7 da ca 4d 38
       -3.989519e-05 6.28261e-05 -2.8467408e-05 4.906473e-05
0001c0 1b 82 87 b8 28 c4 97 38 50 8e e9 38 00 3f e7 b8
       -6.461536e-05 7.236778e-05 0.000111368136 -0.00011026673
0001d0 44 8c 08 38 b1 33 11 b7 33 b2 7b b8 a5 6b e4 b7
       3.255556e-05 -8.654709e-06 -6.0009024e-05 -2.7229844e-05
0001e0 e0 40 87 37 6f 23 cb 37 ac 2f c2 b7 dc 6f 83 38
       1.6123464e-05 2.4215986e-05 -2.3148801e-05 6.267402e-05
0001f0 42 45 1d 38 7c 39 fe 37 91 13 b1 38 08 0d 7b 38
       3.749622e-05 3.0305928e-05 8.443662e-05 5.98552e-05
000200 f8 e2 93 3b b5 33 84 bb 83 91 70 3c a2 0c cf 3c
       0.004513141 -0.0040344843 0.01468313 0.025274578
000210 16 83 07 bc dd d7 a3 bc c8 73 52 bc fb b2 83 3c
       -0.008270999 -0.020000393 -0.012844987 0.016076555
000220 6c 60 03 bb e5 36 a8 3a b7 09 9c bb a3 e4 0e 3c
       -0.0020046486 0.0012833743 -0.0047619003 0.008721503
000230 5b 45 95 3c 0e a9 12 3c ad dd ab ba 18 cc 94 39
       0.018221548 0.008951439 -0.0013112329 0.00028380821
000240 1f 81 53 bc 51 f5 24 3b 7d c8 84 3c a5 58 e8 3b
       -0.012909203 0.0025170634 0.016208882 0.0070906454
000250 19 3b fb 3b 14 da df ba 38 4b 8d 38 34 57 84 3c
       0.007666957 -0.0017078542 6.7374145e-05 0.016154863
000260 b6 91 70 bb d1 af fc 3a 9c ea 58 3c 70 67 96 3a
       -0.0036707944 0.0019278472 0.013239529 0.0011474919
000270 18 bf 59 bc 0a 23 66 39 ae 59 3c 3b 69 f0 72 bc
       -0.013290189 0.00021947562 0.0028739977 -0.014827826
000280 3a 38 6a bb 89 0f c9 bc 58 70 ad 3c 59 bc c7 3b
       -0.003573908 -0.02454354 0.021171734 0.006095451
000290 1a cf 9e bb e2 4b 3c bc d2 ca e5 3a 6e c9 99 3a
       -0.004846466 -0.011492701 0.0017531759 0.0011733004
0002a0 aa 28 c0 bb ff a0 7b bc b7 a9 57 3b 85 15 a5 3c
       -0.0058642225 -0.015358209 0.0032907554 0.020151863
0002b0 48 f1 95 bc 55 0e 61 3b 10 84 56 3b f7 c7 8e ba
       -0.018303528 0.0034340818 0.0032732524 -0.0010893334
0002c0 65 42 6b 3b 82 e2 1a bc 66 80 2b 3c cb 8a 99 bc
       0.0035897729 -0.009453418 0.010467624 -0.01874294
0002d0 05 18 ab 3b 27 7d 8b bc 86 48 8d 3b 3e 0b c8 bc
       0.005221369 -0.01702745 0.004311624 -0.024419423
0002e0 68 23 0c 3c 0a e8 d3 3b 62 dc 30 3c 24 95 ed bb
       0.008553363 0.00646687 0.010794731 -0.007250445
0002f0 42 98 d7 3b e4 ac 3b bc 37 73 ca bb af fc bc 3b
       0.00657943 -0.011454795 -0.0061782855 0.005767427

transformer.layers.0.self_attn.out_proj.weight f4 [64, 64]
000000 c8 cb 44 bc b1 b9 ab 3c 7f dc 9c ba 07 86 fd bb
       -0.012011476 0.020962568 -0.0011967568 -0.0077369246
000010 f8 6a c4 bb 52 bc b8 b9 04 0d 0e bc ba e2 07 bb
       -0.005994197 -0.00035235524 -0.008670095 -0.0020734505
000020 f6 38 96 3c b8 e6 35 3c d8 5a 98 3c 30 80 98 3c
       0.018337708 0.011102371 0.018598005 0.018615812
000030 c9 ee 57 bc 52 f5 cc bc 8c 93 48 bb 56 a9 cb 3c
       -0.013179489 -0.025019322 -0.0030605523 0.02486102
000040 90 c7 04 bd ab 1e c4 3c 21 9e 99 3c 7c b1 0e 3d
       -0.03241688 0.023940405 0.01875216 0.03483723
000050 be 15 c5 bc 95 d9 58 bc c3 f3 c9 bc bf 94 29 bd
       -0.024058219 -0.013235469 -0.024652367 -0.04140162
000060 2c a1 15 3c 7e e5 27 3c e2 c1 c2 3b ee 4d 6f 3b
       0.009132665 0.010247586 0.005943523 0.0036514956
000070 04 68 01 3d 67 67 89 bc c4 02 a5 bc 72 b3 ff 3c
       0.031593338 -0.016772939 -0.02014292 0.031213496
000080 88 38 ae b8 3e 59 19 3d b0 46 0a 3a e4 6c f4 bb
       -8.307496e-05 0.037438624 0.00052748155 -0.00745927
000090 85 21 c2 b8 02 cd 28 bd 9d 65 9c 3c 24 da 47 3c
       -9.2568844e-05 -0.041211136 0.019091422 0.012198005
0000a0 c6 e1 56 3c 79 d6 a7 3b b0 5a b5 bc fe a5 62 bd
       0.013115352 0.0051220027 -0.02213797 -0.055334084
0000b0 00 40 0f 3d 64 c5 9e bc d3 a6 96 3b d6 a1 bb bb
       0.034973145 -0.019381233 0.0045975237 -0.0057260795
0000c0 92 ab 82 3c 30 62 ef bc cf fa b9 3b d8 ad 85 3c
       0.015950952 -0.029221624 0.0056756507 0.016318247
0000d0 6b 89 73 3b c0 09 46 bc 23 e3 a5 3c 0d 73 de bc
       0.0037160765 -0.0120872855 0.020249909 -0.02715447
0000e0 04 fa c4 bc 6c 29 90 ba ef 94 c6 3c a7 4f 9c 3c
       -0.024044998 -0.0010998673 0.024240939 0.01908095
0000f0 fa 60 9b bc 17 7f d6 bc 03 dc 78 bc 01 33 29 bd
       -0.01896714 -0.026183648 -0.015189174 -0.041308407
000100 e4 9d dc bb 8a 49 ab 3b 1f 46 57 3c 87 c5 e6 bc
       -0.006732689 0.0052272724 0.013139277 -0.02817036
000110 9e bb ec bb 50 11 2b 3d a8 78 2d bd bb 96 dd 3b
       -0.007224514 0.041764557 -0.042351395 0.0067623532
000120 7b c2 8c bb 04 fe 7e bc b7 cd 79 bd 95 ea 23 bd
       -0.004295645 -0.015563492 -0.0609872 -0.040018637
000130 1d d0 30 bd 17 8c b6 bc aa 09 f1 3c b8 b8 12 3d
       -0.043167222 -0.022283597 0.029423553 0.035820693
000140 dd 36 ec bc ab c2 31 bc 0e a9 dd bc 71 24 2e 3d
       -0.028834755 -0.010849635 -0.02705815 0.042515222
000150 c6 75 94 3c 62 3d 45 bb 55 63 eb bc f0 10 0b 3d
       0.018122565 -0.0030096401 -0.028733889 0.0339517
000160 fb 8b cd bc ca 74 0c bc 78 53 05 3d 2b 8b 8b bc
       -0.025091162 -0.008572767 0.032550305 -0.017034134
000170 76 68 01 3d fa 35 1c 3d b0 06 86 3c 82 53 54 3c
       0.031593762 0.038137414 0.01636061 0.012959363
000180 1f e7 f7 3c d3 df 2e bc d6 3e 49 bd f3 df 06 3d
       0.030261574 -0.010673481 -0.04913219 0.03292842
000190 56 23 27 3c 4c 7b 73 bd 84 82 84 3c 1c df 6e bd
       0.010201296 -0.059443757 0.016175516 -0.058318242
0001a0 23 a9 59 bd 6c 9a 6b bc 6a b4 94 3c 0a db f2 bc
       -0.053139817 -0.014380079 0.018152434 -0.029645462
0001b0 41 a9 e3 bc 05 90 25 bd ac 73 2c bb 2c cd 2a bd
       -0.027790667 -0.04042055 -0.0026314063 -0.041699573
0001c0 75 43 45 bd c6 7d 06 bd 26 d5 80 3d 8d 53 35 3c
       -0.048160035 -0.03283479 0.06290655 0.011067283
0001d0 9b 60 7c bc 6b b6 57 3d 97 84 04 bd 79 65 2f bd
       -0.015403892 0.0526642 -0.03235301 -0.04282138
0001e0 d8 e8 f4 3c 0a a9 85 3d af 66 92 bc de 7a 08 3d
       0.029896185 0.06526382 -0.017871229 0.0333203
0001f0 50 11 83 3d 4c 7a 53 3d 6f bb 90 3d 5c 68 fb ba
       0.063997865 0.051630303 0.07067 -0.0019180882
000200 21 76 0b 3b 11 bd 93 3a a9 79 8c 3c e5 da a3 bc
       0.0021280127 0.0011271556 0.017147856 -0.020001838
000210 e0 71 97 bb 29 bc f9 bb 78 1d 40 ba 03 0a f7 bc
       -0.0046217293 -0.0076213074 -0.000732861 -0.030156141
000220 08 87 d1 3b 30 de 66 3c f0 17 86 3c 0e 4e 0c bb
       0.006394271 0.01409106 0.016368836 -0.002140883
000230 b1 48 cd 3c f0 f3 5e bc 12 81 8b bc 94 4f f5 3c
       0.025059076 -0.013607964 -0.017029319 0.029945172
000240 b4 c5 47 bb af 18 b4 3c 19 48 f4 3c b4 1f f2 3c
       -0.003048283 0.021984426 0.029819535 0.029556133
000250 97 56 05 bd 4c 07 1b 3b 03 e6 2d bc 58 a4 d5 3b
       -0.03255328 0.0023655472 -0.010613921 0.0065198354
000260 d6 02 62 3c 6b 3a bc 3c 72 94 52 bc c4 30 82 3c
       0.013794621 0.022977075 -0.012852775 0.015892394
000270 8f c4 25 3c 53 31 2a bb 6f 20 3f bc 01 2a 8e 3b
       0.010117664 -0.002596934 -0.011665448 0.0043385033
000280 61 27 1d 3c 02 a4 db 3b 3b 12 72 bc 73 cb 1d bc
       0.009591908 0.006702901 -0.014774854 -0.009631026
000290 b0 89 c6 3b 0b 87 4a bc d8 bc b0 3b b7 65 59 3c
       0.006058894 -0.012361298 0.0053936057 0.01326888
0002a0 15 bd ac ba 91 58 19 bd ad 96 8d 3b ff 49 d5 bc
       -0.001317891 -0.03743798 0.0043209405 -0.02603626
0002b0 ca bc c0 3c 6d 54 5a 3c 31 f3 e1 bc 44 33 0b 3c
       0.023527522 0.013325793 -0.027581783 0.008496109
0002c0 8b e3 24 bb 18 3a 84 bc 8f 05 b7 3b 9e 5a 79 ba
       -0.002516004 -0.016140983 0.0055853794 -0.0009512099
0002d0 a0 b3 43 bd 81 36 c5 bc f0 e0 55 3c 22 3c 12 bc
       -0.047778726 -0.024073841 0.013054118 -0.00892547
0002e0 21 68 81 bb c2 39 67 b9 68 2d 24 3d 16 2f 19 bc
       -0.0039491807 -0.00022051393 0.040082365 -0.009349605
0002f0 2d b3 8f 3b ef 06 73 bc 76 a8 0b bd f9 9f 8a bb
       0.004385373 -0.014833196 -0.034096204 -0.004230496
000300 2a 92 ff 39 19 2c 27 3a a7 51 87 bb 07 f7 c0 bc
       0.0004874629 0.00063771155 -0.0041296068 -0.023555292
000310 8d 48 7e bc f3 d3 c2 bc 37 a7 2d 3c 41 a9 73 3c
       -0.015520227 -0.023782706 0.010598949 0.014871896
000320 2e 84 a3 b9 79 d6 26 bc 9d 46 40 bc c4 2c 60 bc
       -0.00031188264 -0.01018297 -0.0117355855 -0.013682548
000330 ac f6 39 bb 93 b7 f1 ba 74 fd f7 3c 90 35 16 bc
       -0.0028375788 -0.001844155 0.030272223 -0.009168044
000340 e2 2f 8e 3c 5e 5b 9f 3c 76 e7 d3 ba 66 52 de 3b
       0.017356817 0.019452747 -0.0016167003 0.006784725
000350 b9 8a ab 3c be 2a cd 3b 89 56 c8 3b 1e b2 96 3c
       0.020940172 0.006261199 0.0061138314 0.01839548
000360 b0 a0 f8 bb 08 7c 2b 3c e2 52 be bb 57 b5 a3 3b
       -0.007587515 0.010466583 -0.0058082202 0.0049959826
000370 f9 e1 b9 3c 6e 57 23 bc 8b 00 6c bc 0f af 09 3c
       0.02269076 -0.009969575 -0.014404426 0.008403554
000380 a5 80 3d 3b 4b 9e a7 3c f1 fc af 3b b0 86 01 bb
       0.002891579 0.020461222 0.005370729 -0.0019764118
000390 26 51 75 bc 3b a0 d0 bc d7 cb 9d bb 4c d2 3b bb
       -0.014972961 -0.025467029 -0.0048155594 -0.0028659282
0003a0 74 72 88 3b d6 b6 d8 3a 40 33 f2 bb 88 e1 22 bd
       0.0041640345 0.0016533982 -0.0073913634 -0.039765865
0003b0 5d 68 cf bb 4a 43 b0 bb b8 cf 02 bc c0 8c b5 bb
       -0.0063295797 -0.005379115 -0.007984094 -0.0055404603
0003c0 0c 9a e7 bb 42 bd 31 bc 29 92 1b 3c e9 5c 4d bc
       -0.0070679244 -0.010848345 0.0094952965 -0.012534359
0003d0 28 0c 42 3c c8 22 68 ba c3 58 0a 3c 9a 2b f2 bc
       0.011843719 -0.00088552805 0.008444014 -0.029561806
0003e0 b8 1c ce bc ed e7 83 3c 65 96 e9 bb 6d cc 07 3c
       -0.025160179 0.016101802 -0.007128524 0.008288485
0003f0 f0 6e 94 3b 68 a0 ea bc cf 14 56 3c 02 00 d1 3b
       0.0045298263 -0.02864094 0.013066485 0.0063781748

transformer.layers.0.self_attn.out_proj.bias f4 [64]
000000 fe c2 fb ba 64 1c 82 3a 7c 6b 0b 3a d7 c2 91 ba
       -0.0019207892 0.0009926674 0.00053184456 -0.0011120689
000010 b7 c2 77 ba cd ed a5 ba 62 50 1d ba ac fc 90 b9
       -0.0009451317 -0.0012659371 -0.00060010527 -0.00027654076
000020 76 68 83 ba 9c 84 01 39 03 3e 73 b9 20 a3 a5 b9
       -0.0010025639 0.000123518 -0.00023197387 -0.0003159279
000030 74 bd ca b9 a5 c7 b1 b9 80 2e 97 b9 6d 7b 54 ba
       -0.00038669596 -0.00033908818 -0.0002883561 -0.000810555
000040 32 f8 43 3a e7 f2 05 ba f4 46 d3 39 b1 14 ab b8
       0.00074756437 -0.00051097426 0.0004029792 -8.1577695e-05
000050 9d 59 16 3a 5c 30 15 ba 73 1d b1 39 07 ee ca b9
       0.00057353993 -0.0005691105 0.00033782012 -0.00038705787
000060 7a 21 e2 b9 f0 e9 eb 38 b1 3e dd 39 80 ca 9b b9
       -0.0004313102 0.000112492475 0.00042199114 -0.00029714778
000070 5c e6 d3 39 ca c1 51 39 a4 e1 70 ba 86 e2 a1 39
       0.00040416687 0.00020003985 -0.00091888965 0.00030877086
000080 7d fd 17 ba 8b 3f 65 3a 30 3e 59 ba 38 52 7e 3a
       -0.00057979656 0.00087451254 -0.000828716 0.00097015826
000090 18 e8 80 39 98 d7 3d 39 08 58 98 3a 3c 72 b0 b9
       0.00024586986 0.0001810476 0.0011622915 -0.00033654447
0000a0 7c 32 93 38 e8 98 9e ba e0 d7 35 ba 13 86 5e b9
       7.01891e-05 -0.0012100013 -0.000693677 -0.00021221516
0000b0 74 13 82 39 0f 6f 4e ba 00 d2 a1 35 de 26 00 3a
       0.00024810026 -0.00078748254 1.2056553e-06 0.0004888604
0000c0 07 d5 54 bb 9a cc 94 39 42 10 17 ba 1c c6 71 ba
       -0.0032475607 0.000283812 -0.00057626155 -0.0009222941
0000d0 b8 8c b7 39 3e 47 b9 38 ea f2 c4 b9 86 61 54 39
       0.00035009324 8.834757e-05 -0.00037565018 0.00020254226
0000e0 1e 2e 1a b8 30 fc 2b 39 7b 85 30 39 25 49 c0 b9
       -3.675941e-05 0.00016401778 0.00016834393 -0.0003667559
0000f0 53 da f4 b9 a1 84 49 ba ad 84 0e b9 96 91 65 ba
       -0.0004670197 -0.0007687305 -0.00013591601 -0.0008757351

transformer.layers.0.linear1.weight f4 [128, 64]
000000 02 9e ef bd c2 d6 b2 bd 48 f6 a2 3d 32 13 f7 bd
       -0.117000595 -0.08732368 0.07957131 -0.12064208
000010 d6 55 c3 3d 60 19 b2 bb 9a ae f1 bd 6a 47 aa 3d
       0.09537856 -0.005435154 -0.11800881 0.083144024
000020 ca e8 8f bd 04 17 75 3d 62 2e ee bd f4 2b dc bd
       -0.07026823 0.059836403 -0.116299406 -0.10750571
000030 90 67 97 bc d0 1c 22 3d 70 9b 11 bd 60 67 88 bd
       -0.018482 0.03957826 -0.035548627 -0.06660342
000040 78 7f 93 3d c0 02 7e bb 60 61 bb bd a0 13 d9 3d
       0.07202047 -0.0038758963 -0.09149432 0.10599446
000050 00 70 00 bc f2 ad 88 bd a4 4e cb bd e2 b8 9c bd
       -0.007839203 -0.066738024 -0.09927109 -0.07652451
000060 ee ef bb bd e0 e1 8c 3d 12 00 b5 bd 10 30 c3 3d
       -0.09176622 0.0687902 -0.08837904 0.095306516
000070 80 b0 97 bb 00 2c bb bb 42 c3 df 3d f0 08 2a bd
       -0.0046291947 -0.0057120323 0.10925914 -0.04151243
000080 ee 5e a7 3d be b9 d4 3d 94 91 0a bd d0 7f 31 3c
       0.08172403 0.1038699 -0.03383024 0.0108336955
000090 70 0f ef 3c e2 fd e4 bd 94 32 12 3d bc da da bd
       0.029182166 -0.11181237 0.035692766 -0.106862515
0000a0 a0 70 33 bc 44 db 1c bd 28 40 e1 3d e0 bb e9 3d
       -0.010952145 -0.038295045 0.10998565 0.114127874
0000b0 b2 bd a6 bd 3e 6b bc bd e8 04 b1 bc b0 fd f0 3c
       -0.0814165 -0.09200142 -0.021608785 0.029417843
0000c0 30 11 33 bd 90 b5 6a 3c 10 12 03 bc 3a 79 b4 3d
       -0.043717563 0.014325514 -0.007999912 0.08812185
0000d0 08 81 fa 3c 26 2f c4 3d 7e 3c 81 3d b8 c6 b3 bc
       0.030579105 0.09579305 0.06310366 -0.021945342
0000e0 34 f5 75 3d 10 8d d7 bc 5e f5 d9 bd 76 2e b8 3d
       0.060048297 -0.026312381 -0.10642503 0.08993237
0000f0 68 ca eb 3c 40 21 5f 3c 3c e5 b9 3d 90 65 16 bd
       0.028783038 0.013618767 0.09076926 -0.03671795
000100 70 87 ac 3c 84 7c c1 3b 12 4d d6 bc 8f 49 ef 3c
       0.021060675 0.005904736 -0.026159797 0.02920988
000110 eb d8 68 3d cb e3 c5 3c 16 1b be 3d a9 85 ae bd
       0.056847494 0.024156472 0.0928251 -0.085215874
000120 f8 cc 9d 3d 3a 4d a3 3d 9b 0e 41 3d e9 99 81 3c
       0.0770511 0.07973714 0.04713307 0.01582046
000130 bc c4 ca 3d 4a e6 8a 3d 98 da 73 3d d8 d1 d5 3d
       0.09900805 0.067822054 0.05953464 0.10440415
000140 a9 06 bf 3d b6 8c 57 3b 65 75 05 3c 9a 82 de bd
       0.09327442 0.0032890267 0.008145665 -0.10864754
000150 e1 29 08 be e6 6d ed bd d0 51 ba 3d f3 c0 a2 bd
       -0.13297226 -0.11593227 0.09097636 -0.079469584
000160 a3 ea ab bd b6 c7 0c 3e bf b5 58 bd 25 35 5f bd
       -0.08394363 0.13748059 -0.0529077 -0.054494042
000170 26 46 b8 3c 54 d2 16 be e2 af b0 3d 8b 04 e6 3d
       0.022494387 -0.14728671 0.08627297 0.11231335
000180 27 87 ad bd 3b ce 23 3d d6 9a 3d ba 95 4f ad 3d
       -0.08473044 0.0399916 -0.000723285 0.08462445
000190 0c 20 e2 bd ce 6e 35 bd 26 d5 b5 3d 0c 62 c9 3c
       -0.11041269 -0.044295125 0.088785455 0.024582885
0001a0 cc 20 22 3d bf 7d bf bd 51 8a b4 3d 4b b7 47 3d
       0.03958206 -0.09350156 0.08815444 0.048758786
0001b0 73 50 8f bc e8 d5 73 3d b5 87 00 3e 92 4f 90 3b
       -0.017494416 0.05953017 0.12551768 0.004404017
0001c0 88 a0 96 3d c3 ed 02 bd 8e ce fe 3d a9 68 c8 3d
       0.07354838 -0.03196503 0.12441741 0.09785587
0001d0 74 10 0a bd b1 c1 d7 bd a4 7c d5 3d 35 cc 34 bd
       -0.033707097 -0.105349906 0.10424164 -0.04414006
0001e0 a6 9b de 3d 9b 48 08 bd d3 e8 3e 3d 08 7a 6a 3d
       0.10869531 -0.033272367 0.046608757 0.057245284
0001f0 48 66 89 bd 50 13 bd bd bd 69 d8 3d f2 ec 6b bd
       -0.06708962 -0.09232199 0.10567043 -0.057599016
000200 a9 d9 81 3d 1f 83 d9 3d 25 36 31 bd 8d 35 3d 3a
       0.063403435 0.106207125 -0.043264527 0.00072177575
000210 ff 84 b9 bd e5 10 a5 bc 11 2d 3e bc 20 af 85 3c
       -0.0905857 -0.020149658 -0.011607424 0.016318858
000220 1c 2f 72 bd 54 0c ab bd 4a 36 43 3b 75 d2 e6 bd
       -0.05912696 -0.08351961 0.0029786997 -0.1127061
000230 16 a2 bd 3d 23 de 2a bd 1a 38 c3 bd 10 e2 db bd
       0.09259431 -0.041715752 -0.09532185 -0.107364774
000240 e8 ba bd 3c 95 da 8c bd f8 a9 e4 bd d5 d7 de bd
       0.023160413 -0.06877629 -0.111652315 -0.108810104
000250 a1 18 3a bd 07 af 89 bd b6 d0 cc 3c 1e c7 01 3b
       -0.045433644 -0.06722837 0.025001865 0.001980252
000260 3b 25 8b 3d 8d d7 fa bd a3 8a db 3d 84 43 cb bc
       0.067942105 -0.12248144 0.10719802 -0.024812467
000270 a7 ff 80 3d e0 9d 4a 3d 95 55 fb bd 27 31 9e bd
       0.06298762 0.049466968 -0.12272183 -0.07724219
000280 09 c9 1e 3d 0c d2 8f bd 9b 65 98 3b 66 31 30 3d
       0.03876594 -0.07022485 0.004650784 0.04301586
000290 56 57 62 bb ce 8e 3c bc 1f 6d df bd 2e a6 35 bd
       -0.003453692 -0.011508657 -0.10909485 -0.044347934
0002a0 9f 8d d9 3d e7 fd 2c 3d ee 7d e3 3d eb e4 d8 3d
       0.10622715 0.042234328 0.111080036 0.10590538
0002b0 05 33 8d 3d 18 61 a3 3c e0 9b a9 3d 42 9e 12 bd
       0.06894497 0.019943759 0.08281684 -0.035795458
0002c0 68 3d a1 bd 41 67 be bd fa bb 94 bc c0 aa b1 bd
       -0.078730404 -0.09297038 -0.01815604 -0.08675146
0002d0 c5 13 f2 3d 4f 13 8c bc 51 24 d1 bc 55 91 0f 3d
       0.11820177 -0.01709905 -0.025530012 0.03505071
0002e0 32 54 42 bd 38 0e 29 3b 76 5e 24 bd 2c 24 c1 bd
       -0.047443576 0.0025795829 -0.040129147 -0.09430727
0002f0 af 74 c6 bd 3b 0b a0 3c 3f a6 ad 3d aa d2 bb bd
       -0.096902244 0.019536605 0.084789746 -0.0917104
000300 e8 33 c6 bd b0 c0 b9 3d ad 59 f1 3c 90 bd 4d bd
       -0.09677869 0.09069955 0.029461706 -0.05022961
000310 3c e3 b5 3d 5a b3 20 3d 6f ad 8b 3d 8e ee ae 3d
       0.08881232 0.039233543 0.06820189 0.085415944
000320 6e d8 db 3b 0e f0 2a 3d c0 5f 00 bd ec 5b d0 bd
       0.00670915 0.04173284 -0.031341314 -0.10173783
000330 f3 7b e2 3d 45 07 e4 bd 9c f6 e5 bd ea 7b 58 3d
       0.11058798 -0.11134199 -0.11228678 0.05285255
000340 b7 0f 72 bd a5 d4 9b 3d ee 58 b2 bd dc 70 b5 bd
       -0.059097018 0.07608918 -0.08708368 -0.08859417
000350 4d 2b 74 3d 30 1b 90 3d 75 39 1f bb ec 41 4e bd
       0.059611607 0.070364356 -0.0024295722 -0.050355837
000360 cd b0 e3 bd 0d 30 1c 3c d8 f7 8a bd ae 5c c5 bd
       -0.111177064 0.009532941 -0.06785554 -0.09636818
000370 18 c4 b5 b9 9b c9 1e 3d 57 3c ea 3d 77 24 76 bd
       -0.00034669111 0.038766485 0.1143729 -0.06009337
000380 07 eb e7 3d 52 c7 59 bd 3a 62 f0 3c ed 39 02 3e
       0.11324125 -0.053168602 0.029343713 0.1271741
000390 5b 5c 37 3c 44 e0 43 3d aa 14 f6 bd be 1a 82 bd
       0.011191453 0.0478213 -0.1201566 -0.06352757
0003a0 3b 2b c8 3d 11 57 46 bc ed fa 9b 3d 38 a3 a7 3d
       0.097738706 -0.012105719 0.0761622 0.081854284
0003b0 f2 01 1f 3d 63 9b ba bb 9f ed 81 bd 30 f6 d7 bc
       0.038820215 -0.005694793 -0.06344151 -0.026362509
0003c0 1c a4 d3 3c 83 4a 0d 3d 25 3e eb 3d 42 73 0a 3b
       0.02583509 0.034494888 0.114864625 0.0021125828
0003d0 0a 9f c9 3d e9 d8 0e 3b 4b eb 71 3d 27 d0 6d 3d
       0.098447874 0.002179677 0.059062283 0.058059838
0003e0 43 5e d9 3c 2f 84 d5 bd 85 1b 40 3d 22 d5 c1 3c
       0.026534205 -0.10425603 0.046901245 0.0236612
0003f0 26 7b bc bd 87 bf f9 3c bc 21 6e 3c 50 4a 89 3d
       -0.09203176 0.030486835 0.01453441 0.06703627

transformer.layers.0.linear1.bias f4 [128]
000000 e0 6c b0 3d 79 d2 04 bc f4 25 c8 bd c5 30 d5 bd
       0.08614516 -0.008106821 -0.09772864 -0.10409693
000010 57 41 91 bb 3b 7e 0d be 15 ef 30 3b 97 2e da 3d
       -0.004432838 -0.13817684 0.0026997973 0.106534176
000020 18 6a 0a be cf f7 16 bd 26 60 e4 bd e4 42 bf bd
       -0.13517034 -0.036857422 -0.11151151 -0.0933893
000030 00 94 1f 3d 80 1c ce bd 7b 93 3f bd e3 13 3e 3c
       0.038959503 -0.1006403 -0.046771508 0.011601421
000040 cd 8b 90 bc c6 a0 ef bd e0 2f f3 bd b3 68 4a bd
       -0.017644787 -0.11700587 -0.11874366 -0.049416255
000050 3c ad d4 bc 35 60 9d 3d 06 82 80 3c fc d9 fc 3d
       -0.02596151 0.07684366 0.015687 0.12346265
000060 a9 c8 ad 3c cb cd 6d bd ad 50 ac bd ad c5 ca 3c
       0.021213846 -0.058057588 -0.08413825 0.024752462
000070 2c ad 52 bd b2 90 bc bd ec 44 f0 bd cd 92 59 3d
       -0.05143468 -0.09207286 -0.11731896 0.053118516
000080 f9 1c 2d 3c 9c 54 0f be 21 c6 a6 bd b0 1a c3 bb
       0.01056599 -0.1399712 -0.08143259 -0.005954109
000090 2b de 05 3c bb 69 8f 3c 7a aa be bd 4f be 37 bb
       0.008170645 0.01750647 -0.093098596 -0.0028037017
0000a0 9a e9 f0 ba 41 4d 9d 3c 73 33 b4 bd 58 75 ea bb
       -0.0018380166 0.019201877 -0.08798876 -0.0071551017
0000b0 bd b5 68 bd 7c bd db 3c 65 31 8d 3c 79 cc e4 3d
       -0.056813944 0.026823752 0.017235467 0.111718126
0000c0 0f 0a 1a 3d bd 61 41 3d 0c 46 4a bd 98 8d a2 bd
       0.03760725 0.04721235 -0.04938321 -0.07937163
0000d0 42 ec 85 3d 21 24 0d be 5c bd 6d bd 13 fe b6 bc
       0.06539203 -0.13783313 -0.058041915 -0.022337949
0000e0 32 a7 32 3d c8 42 a0 3d 25 99 e0 3c aa 3c 01 be
       0.04361648 0.078252375 0.027416775 -0.12620798
0000f0 20 06 43 bc af bd f6 bd 34 c1 dc bc 5a 98 3c 3d
       -0.011903316 -0.12047898 -0.026947595 0.04604373
000100 c9 7a aa bc 1c e8 78 bd cb 5a 90 3d 55 a4 e4 bd
       -0.020810502 -0.06076823 0.070485674 -0.11164156
000110 06 dc c4 bb e8 45 d8 3d 3c 2c c8 3d a0 08 ef 3c
       -0.006007674 0.105602086 0.09774062 0.029178917
000120 5c 8d 95 bd 40 d1 19 3b 30 42 5b 3d 99 a0 f5 bd
       -0.07302353 0.002347067 0.05352992 -0.11993522
000130 6c 06 96 3d 43 ea f2 3c 2c 5b d1 bd e7 d4 c1 3d
       0.073254436 0.02965272 -0.10222468 0.09464436
000140 5f 70 97 bd 81 30 ff bc d9 e4 d3 bd d9 5d 04 be
       -0.0739448 -0.031151058 -0.103463836 -0.12926425
000150 36 2e 90 3d 80 be 45 bd cd 89 c9 3d b7 45 b6 3d
       0.07040064 -0.048277378 0.098407365 0.08900016
000160 98 61 b6 3d 9d f4 d2 bd 73 a0 c8 3d 93 82 e9 3d
       0.08905333 -0.103005625 0.09796228 0.11401858
000170 24 8e e7 bd 68 64 3d bd 48 20 46 bd a6 f7 8e bc
       -0.11306408 -0.046238333 -0.04837063 -0.017452072
000180 84 9b 06 be 6d fd f1 bd 97 06 6e 3d 43 54 b4 3d
       -0.13145262 -0.11815915 0.058111753 0.08805134
000190 f7 8a e9 bc ea 01 71 3c aa ad ac 3c 86 73 e4 3d
       -0.028508646 0.014709929 0.021078903 0.11154847
0001a0 85 11 21 3d 7b 84 ed bd 3c bf 9d 3d 3c ec 56 bd
       0.03932335 -0.11597534 0.07702491 -0.052471384
0001b0 1b 33 4c bd 66 e9 82 3d 67 26 04 be 24 7e 26 bd
       -0.049853425 0.063921735 -0.12905274 -0.04064764
0001c0 68 64 67 3d 69 a3 99 3c 7c 8c b9 bd 76 39 9c bd
       0.05649224 0.018754678 -0.090599984 -0.07628147
0001d0 f4 71 54 bd 4b eb 0e bd 33 80 d9 bd 24 21 f7 bd
       -0.051866487 -0.03489236 -0.10620155 -0.12066868
0001e0 60 8c 98 3b d6 00 02 3d 16 7b df bc f8 96 95 3d
       0.004655406 0.03173908 -0.027280372 0.07304186
0001f0 0d 58 91 bd 7e e2 66 bd 9a eb a3 3d 50 66 67 3d
       -0.070968725 -0.056368344 0.08003922 0.056494057

transformer.layers.0.linear2.weight f4 [64, 128]
000000 5e bb 34 3c 29 83 ac bd 42 23 e0 bb c5 0f f5 3a
       0.011031 -0.08423454 -0.0068401406 0.0018696716
000010 f2 91 8f 3c 68 2c 5d bb 39 38 ba 3c a9 cb 42 bd
       0.017525647 -0.0033748392 0.022731887 -0.047557507
000020 cb a5 83 bd 32 d5 3f 3c 14 c6 0b bc 1b 72 7a bd
       -0.06428107 0.011708545 -0.008531112 -0.061143976
000030 df 16 b2 bd f3 5d d3 3c 8d f9 ef 3c 1f ee 85 bc
       -0.086957686 0.025801634 0.0292938 -0.016348897
000040 43 b5 2a bb 7e 32 93 3b 54 6c 5d bd ab ac 97 bc
       -0.0026047982 0.004492103 -0.054058388 -0.018514952
000050 df 6c 9b 3b b7 a8 32 3b 8b 96 09 bd c2 89 a5 3d
       0.004743203 0.0027261206 -0.033590835 0.08082916
000060 18 31 7d bc 95 2b 50 3d db db a9 bd 1a 1c 40 bc
       -0.015453599 0.050822813 -0.08293887 -0.01172545
000070 5f a8 9e bc ef b4 92 bd 13 48 1a 3c 22 e1 b9 bd
       -0.019367395 -0.071634166 0.009416598 -0.09076144
000080 c8 e0 50 bd 63 c5 69 3d b6 38 90 3d aa ef 17 bd
       -0.050995618 0.05707301 0.07042067 -0.037093796
000090 23 a5 6b bd e5 f0 06 3d 59 67 c0 bc 26 5c 19 bc
       -0.057530534 0.03294458 -0.02348678 -0.009360349
0000a0 8f 81 36 bc dc 65 4d bd d4 f7 d9 3c c6 aa 80 3d
       -0.011139288 -0.05014597 0.026607431 0.062825724
0000b0 5b 36 75 3d 1e 8e 92 bd ec 8d b1 3d a5 50 b1 bd
       0.05986629 -0.07156013 0.086696476 -0.0865796
0000c0 af 01 82 bc 79 b3 95 3d 88 72 17 bd bb 46 45 bd
       -0.015869943 0.07309622 -0.03697446 -0.048163157
0000d0 3a 9d 29 3d 70 24 50 bc c0 d2 59 bd ba 9d 71 bd
       0.04140971 -0.012704 -0.053179502 -0.05898831
0000e0 bf 0b 75 bd a9 56 d5 3c bc 3e 64 bd a3 19 54 bd
       -0.059825655 0.0260423 -0.05572389 -0.05178226
0000f0 b5 7f 46 3d 85 21 76 3b 47 ec 57 3d 59 b7 c3 bd
       0.048461635 0.00375566 0.052715566 -0.09556455
000100 04 54 49 bd a3 fb c3 bd 31 fc 12 bd ee 44 85 3d
       -0.04915239 -0.0956948 -0.03588504 0.06507288
000110 ab 93 9e bc 2d 6e 2f bd dc b7 5b 3d c4 b3 87 3d
       -0.019357523 -0.04282968 0.05364214 0.066260844
000120 cf 25 35 3d fc 04 06 3d 99 82 a2 3d 94 e0 72 bd
       0.04422551 0.032719597 0.07935066 -0.059296206
000130 ef e8 80 bd 12 69 52 bd dd 5f 2c bd 35 ba cf 3c
       -0.062944286 -0.051369734 -0.04208361 0.025357345
000140 e7 72 94 3d e4 76 3f 3d 5d 1b 0b bc ab 15 9e 3d
       0.072484784 0.046744242 -0.008490411 0.077189766
000150 d6 a4 80 bc f0 d4 4a 3d c9 e7 83 bd d5 b7 bc bb
       -0.0157036 0.04951948 -0.06440694 -0.005759219
000160 9e 83 72 3d d1 82 8d 3a ee 0f cb bc 42 88 6b 3d
       0.05920755 0.0010796433 -0.02478787 0.057502992
000170 34 c1 b1 bd 96 a3 28 3d 53 34 b3 3d a7 3a 8d 3d
       -0.08679429 0.041171633 0.087502144 0.06895953
000180 01 4c 18 bc 23 d3 6e 3d 4e 80 84 bd 0a 73 b6 bd
       -0.0092954645 0.058306824 -0.06469785 -0.08908661
000190 de 74 9b 3d 59 42 e2 bc ac 28 a5 3d 88 1c 8a 3d
       0.0759065 -0.027619528 0.08064398 0.06743723
0001a0 6c 62 9e 3d 34 e6 c7 bd 47 90 86 3c ec 5e ac 3c
       0.07733616 -0.09760705 0.016426219 0.021041356
0001b0 45 bf 1b bd db 87 10 3d 82 00 9e 3c 7f 4b 49 3d
       -0.038024206 0.035285812 0.019287352 0.049144264
0001c0 41 41 78 bc de 05 83 bd 03 da c2 bc 96 43 9b bd
       -0.0151522765 -0.063976035 -0.023785597 -0.0758125
0001d0 c0 51 5f 3d 9f 80 bb bb ce 47 8c bc e5 11 ae bd
       0.054521322 -0.00572212 -0.017124083 -0.08499507
0001e0 2a c7 ab 3d d6 91 61 b8 59 06 26 bd 89 21 80 bb
       0.08387597 -5.378e-05 -0.040533397 -0.0039102477
0001f0 f7 24 5d bb 55 26 de 3b 7c 9e 08 3a b1 94 c4 bc
       -0.0033743957 0.006779472 0.00052116043 -0.023996683
000200 06 9a 8e bc d8 44 7a 3d b8 bb 79 3d 44 10 85 3d
       -0.017407428 0.06110081 0.06097004 0.06497243
000210 a1 4b 69 bd 38 06 19 3c 10 1e 1b bd 27 87 c1 bd
       -0.05695689 0.009339862 -0.037870467 -0.094496064
000220 ce 4e 9a bd 17 11 44 3d c6 04 33 bd 58 c8 68 bd
       -0.07534562 0.04786786 -0.043705724 -0.056831688
000230 c4 d0 25 3c e5 b4 cc bd e7 8a d8 bc a4 4e 08 3c
       0.010120574 -0.099954404 -0.026433421 0.008319531
000240 36 63 5a 3b 23 f7 11 3c ee 54 ce 3d bd bd 52 3c
       0.0033323294 0.00890902 0.10074793 0.01286262
000250 8a 4f ee bb fd 37 ab 3d 49 38 18 3c 87 d2 af bd
       -0.0072726654 0.08360288 0.009290763 -0.08585077
000260 a6 57 95 bd ca 17 ae 3c e2 8f 35 bd 3d b9 24 3d
       -0.07292108 0.021251578 -0.04432667 0.04021572
000270 f0 5d 46 bd fc ff 54 3d 22 17 88 bc e7 ed 4b 3c
       -0.04842943 0.05200194 -0.016612593 0.012446857
000280 8b 1d 01 bd 74 91 aa bd c9 cf 41 3d 4d 45 20 bd
       -0.031522315 -0.08328524 0.0473173 -0.03912859
000290 e9 62 cd bb 21 6c e6 3c 51 58 dd bc b9 64 c9 bc
       -0.0062678945 0.028127732 -0.027019652 -0.024584161
0002a0 8e 15 89 bd 19 94 8c 3c bc 4c 4c bd 90 43 82 3d
       -0.06693564 0.017160462 -0.049877867 0.06360543
0002b0 cd af cc 3c ce aa 0d 3d 7b 8b 96 3d c8 08 09 3d
       0.024986172 0.03458672 0.073508225 0.03345564
0002c0 c9 14 9d bb d2 8a 8a bd ca 0c 60 bd 37 09 60 3c
       -0.0047937375 -0.06764759 -0.054699697 0.013674072
0002d0 c0 df a2 bd db 20 fb bc 6b f0 84 3d 1a 28 9c bd
       -0.07952833 -0.030655315 0.064911686 -0.07624836
0002e0 4a db 9a 3b 62 16 10 3d 18 60 e4 bc 4b f0 b2 3d
       0.0047258483 0.035177596 -0.027877852 0.087372385
0002f0 80 9f 04 bd c6 22 8d 3d 2d 8b cd 3c 06 51 74 bc
       -0.032378674 0.06891398 0.025090778 -0.014911896
000300 20 b6 5f bd f0 9f 14 3d 37 17 05 bd 47 34 46 3c
       -0.054617047 0.03628534 -0.032492843 0.012097425
000310 b5 2e b6 3c 3f 28 64 3d 24 f7 07 bd 96 e2 99 bd
       0.022239069 0.055702444 -0.033194676 -0.07513921
000320 0c fe dc bd 79 a3 8f bd 39 e3 01 bd fe 1a 20 bd
       -0.10790643 -0.07013602 -0.031710837 -0.03908824
000330 5f d4 b2 bd a1 ff 4a bc 12 0f 6f bd f8 f9 1d bd
       -0.08731913 -0.012390048 -0.05836398 -0.038568467
000340 de 1a 66 bd c8 2c a9 3d 63 c8 66 bb 54 1a af 3c
       -0.056177966 0.082604945 -0.0035214655 0.021374859
000350 5b 9b 65 3c 2b 54 c9 3c 31 e5 28 bd e2 c2 ab bb
       0.01401409 0.024576267 -0.0412342 -0.0052417377
000360 6c a7 18 3d 62 26 d7 bb 08 a4 30 3d ef 40 3a 3d
       0.03726904 -0.006565855 0.043125182 0.04547208
000370 03 b1 b8 3c 2f 75 bc bd e9 74 80 3d e8 89 a3 bd
       0.022545343 -0.092020385 0.06272299 -0.07985288
000380 2b 05 d8 bc 56 26 b1 bd f0 50 12 3d 44 dc 26 3d
       -0.026369652 -0.0864989 0.03572172 0.040737405
000390 81 bc 06 bd cd 4d 40 3d 95 fe 9a bd 3e 0d a2 bd
       -0.032894615 0.046949197 -0.07568089 -0.07912682
0003a0 5c c4 8a bd fb 50 b0 bd 59 ab 08 bd 06 4a a8 3d
       -0.06775734 -0.08609196 -0.033366535 0.08217244
0003b0 69 e3 54 3d 04 12 f2 bc e5 d3 b7 bc 19 3b f7 3c
       0.051974688 -0.029549606 -0.022439906 0.030179547
0003c0 73 4a a0 bd de 6d 86 bd 15 75 e4 3c e0 a6 b6 3d
       -0.078267 -0.06563924 0.02788786 0.08918548
0003d0 62 1f 99 3d 9d 68 91 bc c0 4f 9a 3d ff b3 49 3d
       0.07476689 -0.017750079 0.07534742 0.049243923
0003e0 07 5e 1b 3d c9 96 c4 bc b3 c5 7f 3d d7 09 8c 3d
       0.03793147 -0.023997681 0.0624444 0.06837814
0003f0 15 1c a8 bd 7a 35 c0 ba c7 de 0e 3c b8 54 77 bd
       -0.08208481 -0.0014664375 0.008720106 -0.06038353

transformer.layers.0.linear2.bias f4 [64]
000000 44 d0 2c b8 15 11 f4 3b 15 e2 99 3b 27 3a af 3a
       -4.1201958e-05 0.0074483254 0.0046961405 0.0013368771
000010 e3 97 0d 3b d8 bc 82 bb a4 72 14 bb 63 3d d6 3a
       0.0021605424 -0.003989797 -0.002265134 0.0016345199
000020 76 67 a1 3a fb 4f 4e ba b2 b1 21 bb 3d f5 31 3c
       0.0012314159 -0.00078701944 -0.0024672565 0.010861692
000030 d4 d8 a8 ba 02 cf 1e ba d6 3e 85 3a 06 8f 24 b9
       -0.0012882003 -0.0006058068 0.0010165821 -0.00015693539
000040 98 87 37 ba 50 11 f3 3a 67 74 9f 3a d5 f0 8f 3b
       -0.0007001101 0.0018544588 0.0012165428 0.004392723
000050 04 48 b0 3b ac ee c5 ba 36 05 1a 3d a6 58 cc b9
       0.0053796787 -0.0015101037 0.037602626 -0.0003897596
000060 33 18 8d 3a a3 6a d2 b8 c4 96 e1 ba fa c2 c5 ba
       0.0010764658 -0.00010033443 -0.0017211069 -0.0015088015
000070 89 6a 05 3b 07 db 7c bb 7b 31 8a 3a 9a 0e a1 ba
       0.002035769 -0.00385827 0.0010543311 -0.0012287677
000080 3c 18 0c bb 39 e0 16 3b a5 40 92 bb 4a 37 e4 ba
       -0.002137675 0.002302183 -0.0044632726 -0.0017411497
000090 bf 4f 2b bb e8 ad 38 ba 2f 03 da ba 95 24 e8 ba
       -0.0026140062 -0.0007044957 -0.0016633029 -0.0017711098
0000a0 db 10 c8 3a 5b ab 9f bb 27 6e 3a bb f2 4f 95 b9
       0.0015263812 -0.004872722 -0.0028447004 -0.00028479059
0000b0 70 7d 25 ba dd 6d bd 3a 8f ce f8 3b ab 6d d1 ba
       -0.0006312942 0.0014452297 0.007592983 -0.0015978118
0000c0 cb ef 80 bb 95 3e a4 b9 4e 90 04 bb 98 4e 2c bb
       -0.0039348355 -0.00031327145 -0.0020227614 -0.0026291963
0000d0 68 ec ee 38 67 7c fd ba 6f 82 e6 39 03 a5 3c 3a
       0.000113927585 -0.0019339443 0.000439662 0.00071962195
0000e0 8c 51 95 b9 94 4c 3f 3a 4c a6 77 bd d3 c6 31 ba
       -0.00028480252 0.0007297483 -0.060461327 -0.0006781641
0000f0 88 f9 d7 ba c0 7e ac 3a 07 c5 a7 b9 ae fb 50 ba
       -0.0016477564 0.0013160333 -0.0003199952 -0.00079720735
